…
 hsv_v=0.4, degrees=0.0, translate=0.1, scale=0.5, shear=0.0, perspective=0.0, flipud=0.0, fliplr=0.5, mosaic=1.0, mixup=0.0, copy_paste=0.0\n","\u001b[34m\u001b[1mWeights & Biases: \u001b[0mrun 'pip install wandb' to automatically track and visualize YOLOv5 🚀 runs (RECOMMENDED)\n","\u001b[34m\u001b[1mTensorBoard: \u001b[0mStart with 'tensorboard --logdir runs/train', view at http://localhost:6006/\n","Overriding model.yaml nc=80 with nc=1\n","\n","                 from  n    params  module                                  arguments                     \n","  0                -1  1      8800  models.common.Conv                      [3, 80, 6, 2, 2]              \n","  1                -1  1    115520  models.common.Conv                      [80, 160, 3, 2]               \n","  2                -1  4    309120  models.common.C3                        [160, 160, 4]                 \n","  3                -1  1    461440  models.common.Conv                      [160, 320, 3, 2]              \n","  4                -1  8   2259200  models.common.C3                        [320, 320, 8]                 \n","  5                -1  1   1844480  models.common.Conv                      [320, 640, 3, 2]              \n","  6                -1 12  13125120  models.common.C3                        [640, 640, 12]                \n","  7                -1  1   5531520  models.common.Conv                      [640, 960, 3, 2]              \n","  8                -1  4  11070720  models.common.C3                        [960, 960, 4]                 \n","  9                -1  1  11061760  models.common.Conv                      [960, 1280, 3, 2]             \n"," 10                -1  4  19676160  models.common.C3                        [1280, 1280, 4]               \n"," 11                -1  1   4099840  models.common.SPPF                      [1280, 1280, 5]               \n"," 12                -1  1   1230720  models.common.Conv                      [1280, 960, 1, 1]             \n"," 13                -1  1         0  torch.nn.modules.upsampling.Upsample    [None, 2, 'nearest']          \n"," 14           [-1, 8]  1         0  models.common.Concat                    [1]                           \n"," 15                -1  4  11992320  models.common.C3                        [1920, 960, 4, False]         \n"," 16                -1  1    615680  models.common.Conv                      [960, 640, 1, 1]              \n"," 17                -1  1         0  torch.nn.modules.upsampling.Upsample    [None, 2, 'nearest']          \n"," 18           [-1, 6]  1         0  models.common.Concat                    [1]                           \n"," 19                -1  4   5332480  models.common.C3                        [1280, 640, 4, False]         \n"," 20                -1  1    205440  models.common.Conv                      [640, 320, 1, 1]              \n"," 21                -1  1         0  torch.nn.modules.upsampling.Upsample    [None, 2, 'nearest']          \n"," 22           [-1, 4]  1         0  models.common.Concat                    [1]                           \n"," 23                -1  4   1335040  models.common.C3                        [640, 320, 4, False]          \n"," 24                -1  1    922240  models.common.Conv                      [320, 320, 3, 2]              \n"," 25          [-1, 20]  1         0  models.common.Concat                    [1]                           \n"," 26                -1  4   4922880  models.common.C3                        [640, 640, 4, False]          \n"," 27                -1  1   3687680  models.common.Conv                      [640, 640, 3, 2]              \n"," 28          [-1, 16]  1         0  models.common.Concat                    [1]                           \n"," 29                -1  4  11377920  models.common.C3                        [1280, 960, 4, False]         \n"," 30                -1  1   8296320  models.common.Conv                      [960, 960, 3, 2]              \n"," 31          [-1, 12]  1         0  models.common.Concat                    [1]                           \n"," 32                -1  4  20495360  models.common.C3                        [1920, 1280, 4, False]        \n"," 33  [23, 26, 29, 32]  1     57672  models.yolo.Detect                      [1, [[19, 27, 44, 40, 38, 94], [96, 68, 86, 152, 180, 137], [140, 301, 303, 264, 238, 542], [436, 615, 739, 380, 925, 792]], [320, 640, 960, 1280]]\n","Model summary: 733 layers, 140035432 parameters, 140035432 gradients, 208.8 GFLOPs\n","\n","Transferred 955/963 items from yolov5x6.pt\n",
…
